system_ext/etc/barrage_v3.tflite (tflite, 741880 bytes, 40 tensors)

model/re_lu/Relu6;model/batch_normalization/FusedBatchNormV3;model/in_conv/BiasAdd/ReadVariableOp;model/in_conv/BiasAdd;model/in_conv/Conv2D f4 [32]
00000000: 332a b33e 1cd9 553e 3fa3 efbc 574b c73d
00000010: c3e1 69be eb76 243e fe8f 49bc 038e abbe
00000020: 8ab2 c2bd ee59 fc3e ae5f 4bbd 8ad8 643e
00000030: 448c 7f3e 6013 c8be e37f 203d 42eb 0f3f
00000040: ea83 febe 5ae0 413e 42a7 d73e d81c ae3e
00000050: 1b2e 34bf 72cc 91bd b22e 313f 9294 c3be
00000060: f880 c5be 082b a7bd c532 3ebf a4e1 f83e
00000070: c729 b6be f85c 03bf 5a64 4fbf 537e 873d
0.34993133 0.20883602 -0.029252646 0.09731167 -0.22840028 0.16060989 -0.012302397 -0.33506784
-0.0950671 0.4928736 -0.049651794 0.22348228 0.24955851 -0.39077282 0.039184462 0.5621835
-0.49710017 0.1893324 0.42119795 0.3400638 -0.7038285 -0.07119073 0.69211876 -0.38199288
-0.38574958 -0.081625044 -0.7429622 0.4860965 -0.3557875 -0.51313734 -0.810125 0.06615891

model/batch_normalization_1/FusedBatchNormV3 f4 [96]
00000000: 19b9 b7bd c689 bebe eece 75be ea56 443f
00000010: 5928 06bf bdeb f0be 9c1b 82be a410 e2be
00000020: 62ad 863e d445 3b3f 63ca 1dbf 1581 96bd
00000030: c10c 21be f5f3 d83e 8bf5 8dbd 906a 01bf
00000040: 2a79 d2bd d1a2 32bf beb4 fdbe 9642 1abf
00000050: f385 0e3e d6ba b4be 2923 b0bd 9e51 d9be
00000060: 5a41 c0be 2a44 6e3e ae8b 863e 7728 98be
00000070: 7091 ecbb 3869 a73e 6c9e 1abf 86ee 843e
00000080: 2ff9 1dbf 106f a8be c9a4 943e 97c2 71bf
00000090: ed95 183e af59 b8be 507f d1bd d74b 2cbe
000000a0: 8cbb 773d 9133 913e e23c 6abe 01b5 ab3e
000000b0: bba8 b0be 76b0 ee3d f964 723e 1cf9 d63e
000000c0: 22c6 3b3e 09ad c33e 176d ddbe 5964 b63e
000000d0: 3291 873e d4ef 48bd 107b 8abe 58ad 023f
000000e0: 4f4c dd3e 7d91 31be e674 1d3e cb51 f33e
000000f0: 944b f73e a23c 2ebe 0acf e33e 810a 11bf
00000100: 14a4 68be 5730 cb3d 7995 2a3f ba3a 653d
00000110: 52a7 2e3f 88ea 7c3c 6411 733e cabb 27bf
00000120: ade6 c0be a5ab b83e 8ef0 19bf 4176 1d3e
00000130: 238b 503f 70a9 1cbd ba04 ddbe 4e1b cc3e
00000140: 7aab a4bd 92ac fa3d af28 953e a4c2 4bbe
00000150: f82f f03d 07b2 b9bd 8ead 0f3f dc6b 68be
00000160: 144d bcbc 0dcf 9fbe 0a0e ce3d bcef 1fbf
00000170: 3a5b fbbd 921b a6be be64 07bf 55a7 48be
-0.089708515 -0.37214488 -0.24004719 0.7669512 -0.52405316 -0.47054854 -0.2541169 -0.4415332
0.26304156 0.73153424 -0.6163694 -0.07348839 -0.15727521 0.42373624 -0.06931599 -0.50553226
-0.102770165 -0.6977969 -0.49551958 -0.6025785 0.13918285 -0.35298795 -0.08600456 -0.4244508
-0.3754986 0.2326819 0.26278442 -0.29718372 -0.007219486 0.32697463 -0.6039798 0.2596323
-0.6170835 -0.32897234 0.2903197 -0.94437546 0.14900942 -0.36005923 -0.10229361 -0.16825806
0.060481593 0.28359655 -0.22874787 0.33536533 -0.3450373 0.11654751 0.2367133 0.4198693
0.183373 0.38217953 -0.4324729 0.35623434 0.26477963 -0.049056843 -0.27047014 0.5104575
0.4322228 -0.17340656 0.15376624 0.4752334 0.4829985 -0.17015317 0.44493896 -0.5665665
-0.22718841 0.099213295 0.6663433 0.05596421 0.6822406 0.015436776 0.23737103 -0.6552092
-0.37675992 0.36068454 -0.6013268 0.15377142 0.81462306 -0.038247526 -0.4316767 0.39864582
-0.08040519 0.122399464 0.29132602 -0.19898468 0.11727899 -0.09067159 0.561242 -0.22697395
-0.022985972 -0.31212655 0.100612715 -0.6247518 -0.122732595 -0.3244291 -0.52888095 -0.19595082

model/batch_normalization_2/FusedBatchNormV3 f4 [96]
00000000: f4aa 3e3e c1aa ba3d 8d22 05be 9e69 983d
00000010: fa9f 1fbd cad7 81be 8984 28bd 28d9 153e
00000020: f753 973e 0ebe 19bf a903 8b3e 4026 d23b
00000030: e5fb 2b3e eb2c eebe 54fc 363d 8b9a 9b3e
00000040: 9064 173c 69a2 51be c73c 7ebe c3b1 c63d
00000050: baa6 a5bd b92f 8a3e 9eb4 403e cc94 51be
00000060: b526 6d3d 828c ecbd 214f 85be f136 b0bd
00000070: fea2 d23d 8fd1 bebe 4793 633e d239 8fbe
00000080: 0180 fabe 4fda 9cbd f6c3 1d3e 9a5c cd3e
00000090: b1fa 893d f238 7abe 3f09 94bd c36c c0be
000000a0: 1885 a2be 8435 053e 4c0c 93be c85f cfbc
000000b0: 28fa 57be b4d7 34bd 361a 3e3e 305d 113d
000000c0: 74ec 12bd 239c 82be 2a62 8c3d 187a 8bbc
000000d0: 7ffc 45be 242b abbe 0974 37be e2ff aa3c
000000e0: 224c 7e3f c0fc 683e 7f54 803e d054 c03b
000000f0: 1c02 8bbe 4bba a63d 13c8 d63e 4424 3a3d
00000100: 8e6d 4e3e 1052 8e3b 3c8e 263d 4661 10bf
00000110: 69c9 77bf fee3 37bd c777 323e 2c8a 223c
00000120: 259e 353f 8752 353f e8f1 50be fc51 193e
00000130: 76f1 9fbf 703c 943d a4e3 9cbe 5260 5a3e
00000140: 9620 323b 1400 10bd ad60 81be 52fc 3f3d
00000150: 7238 aabe ad8e 3f3e baee 153e e62d 543e
00000160: 18e2 3d3c f5e3 653e a36d e83d fa1c 7a3e
00000170: 242d 43be 1601 8a3e c9e4 593e 3a54 373e
0.18619901 0.091146 -0.13001461 0.0744202 -0.038970925 -0.25359946 -0.04114202 0.1463362
0.29556248 -0.60055625 0.2715123 0.006413251 0.16795309 -0.46518645 0.044674233 0.30391344
0.009240285 -0.20472111 -0.24827872 0.09701874 -0.08088441 0.26989534 0.188189 -0.20466918
0.057898242 -0.11550237 -0.26036933 -0.08604229 0.102849945 -0.37269256 0.2222415 -0.279738
-0.48925784 -0.076588266 0.15406784 0.40109712 0.06737269 -0.24435785 -0.07228326 -0.3758298
-0.31742167 0.13008696 -0.2872032 -0.025314227 -0.21091521 -0.044151023 0.18564686 0.03548926
-0.03587003 -0.25509748 0.06854661 -0.017025992 -0.19334601 -0.3343135 -0.17915358 0.020873968
0.9933492 0.22752666 0.25064465 0.0058694854 -0.27150047 0.08141001 0.4194952 0.04544474
0.2015898 0.0043432787 0.04066299 -0.5639843 -0.967917 -0.044895165 0.17428504 0.009920638
0.70944434 0.7082905 -0.2040478 0.14972681 -1.2495563 0.0723809 -0.30642426 0.21325806
0.0027180067 -0.035156325 -0.2526907 0.04687149 -0.3324619 0.1870677 0.14641848 0.20720634
0.0115895495 0.2245024 0.113490365 0.24425116 -0.19060189 0.26953954 0.21278681 0.17903224

model/batch_normalization_4/FusedBatchNormV3 f4 [96]
00000000: 81b3 2a3e 2bb0 893d e4f6 c83d e2d7 fcbd
00000010: 4aa5 50bd 9b40 93bb 8950 85bd d49d 723d
00000020: 723f 04be 148f 4d3d 2eee eebc 9afe 753e
00000030: 2b5a bc3d 04eb 4dbe a10d b33d 7ea3 69be
00000040: abd6 58bd a564 903e c5db afbe 5305 76be
00000050: cb4a 79bc 4975 2dbc 656a c0bd 62ad eabd
00000060: d438 fc3d accb 9c3e 8556 5a3d c470 fc3d
00000070: ccf8 0cbe be5d 20bd f0ed b5bd e2d4 aa3d
00000080: 732b b23e 38e8 803e b066 4fbe a8c1 bfbc
00000090: 18b8 2b3d b20d e2bd 3fe3 7abd 7cbf adbc
000000a0: 6027 37be e1ed ac3e 9e3b ea3d 8104 adbd
000000b0: 707b 1abd e461 c1bb dde4 22bd bc7e 1fbe
000000c0: d1f0 8f3d 5811 76bc a2cb 16bd 5abe f33d
000000d0: a43a 3cbe 12d6 fcbd 3fac 953d 46b2 b4bc
000000e0: 07b3 90be 0f6b 6f3d a62d 5ebd abb3 35bd
000000f0: 3906 c9bc 6a84 debd f207 69bd 38ea e8bd
00000100: 849c 7f3d 43d8 853d 1e7c 553e 6894 e2bc
00000110: 06df 223e a4d0 473c c9d3 02be d58b 30bc
00000120: d86c ab3d 2385 d43d 4674 373e b25a 1dbe
00000130: 48bc b3bb 28f1 033b 20a4 7b3e ab8c d1be
00000140: b8f0 cebc 610b 58be dd46 a4bd fd6c 4bbe
00000150: de9f 893d d831 a03d f2a6 44bd ba27 e13d
00000160: e58a f53d 4820 173d 6c06 6d3d 4518 c03b
00000170: 01a2 63be af4d 86be fb77 c9bd 2c85 bf3d
0.16670038 0.067230545 0.09812716 -0.12345864 -0.050938882 -0.0044937856 -0.065095015 0.059232548
-0.12914827 0.050185278 -0.029166307 0.24022904 0.09196886 -0.20109183 0.08742834 -0.22816274
-0.0529391 0.28201786 -0.34347358 -0.24025469 -0.015215586 -0.010587045 -0.09395293 -0.114588514
0.123155266 0.3062414 0.053305168 0.12326196 -0.13766783 -0.0391519 -0.088832736 0.083413854
0.34798774 0.2517717 -0.20254016 -0.023407772 0.041923612 -0.110377684 -0.061251875 -0.02120947
-0.17886114 0.33775237 0.11437152 -0.08448125 -0.037715375 -0.005901562 -0.039769042 -0.15575689
0.07028354 -0.0150187835 -0.036815293 0.11901541 -0.18381745 -0.12345518 0.07308244 -0.022057664
-0.28261587 0.05845171 -0.054242752 -0.044360798 -0.0245391 -0.108651 -0.056892343 -0.11372799
0.062405124 0.06535389 0.20848128 -0.027658656 0.15905389 0.01219574 -0.12776102 -0.010775526
0.0837037 0.10376956 0.17915449 -0.15366629 -0.0054850914 0.0020132754 0.24574327 -0.40927634
-0.025261268 -0.2109809 -0.080213286 -0.19865794 0.06719945 0.07822007 -0.048010774 0.10993905
0.11989383 0.03689602 0.057867453 0.005862268 -0.22229768 -0.26231143 -0.098373376 0.093515724

model/batch_normalization_5/FusedBatchNormV3 f4 [96]
00000000: f1e2 ad3e 6cd3 e4be 160e 903f df5e a5be
00000010: 9a5a c0be 2149 ccbe 2317 43bf e28d febd
00000020: e9be 783f e27e cfbf 6803 ff3d 6e83 003e
00000030: cffe 9b3e 1c9c cbbe 1ebe e63c 112c 93be
00000040: e14c ddbe 238b 0e40 724a 73be 9a08 a3be
00000050: e4c3 d7be 7f0f d6be 8c30 0dbf 55dd 1b3e
00000060: 3ba5 a03e 7257 7cbe 1706 d9be d2c1 d2be
00000070: 5235 3c3e fb61 153f 9221 473f f2e3 743e
00000080: f852 c43e 1b7e 873f c4a0 9dbe c9ca adbe
00000090: 4223 173d 1e28 b3bd 6133 58bf 656c 223f
000000a0: ce81 a6be 3a10 f53e 0ce0 95be 43ff 46bd
000000b0: 30f7 19bf 8297 393d 5f6e 99be 9b3a f8be
000000c0: 748a 74be cc14 2c3f 0c28 523d 3713 d03f
000000d0: 25ca e4be 2604 debe fd23 be3d 5f3e 82bf
000000e0: 6c84 84be e7f7 f4be 9f94 5bbe 56ba f3be
000000f0: 5598 983e 4862 14bf 5b14 4abe 3871 02be
00000100: c65d b93e df7b 933d 0019 b63f 9b78 e9be
00000110: 1ae4 373f e0f9 23bf dc35 f8be f18e 243f
00000120: 6ce2 c5bc b94c 793f 9253 633f 1583 5bbe
00000130: 7945 65bf 488e cf3e ca6f 05be e65e 3cbe
00000140: 6529 1abf c557 14bf 7b9a 2fbf 7453 1abf
00000150: 22d3 a13e c9c5 efbe f31a 943d 66b8 debd
00000160: 47a1 3cbe 02f5 903e aca4 583f 7671 c83d
00000170: 2ab5 98be 0822 b7be 3a04 a93e 6049 ec3b
0.33962205 -0.44692552 1.1254299 -0.32298943 -0.37569124 -0.39899543 -0.7620718 -0.12429406
0.97166306 -1.6210597 0.124518216 0.12550136 0.3046784 -0.3976754 0.028166827 -0.28744557
-0.43222716 2.2272422 -0.23758867 -0.318425 -0.4214164 -0.41808698 -0.551522 0.1522115
0.3137606 -0.24642733 -0.4238746 -0.41163498 0.18379715 0.5835263 0.777856 0.23915079
0.3834455 1.0585359 -0.30786717 -0.33943775 0.03689886 -0.08747886 -0.844534 0.63446647
-0.32520908 0.47863942 -0.29272497 -0.04858328 -0.60142803 0.045310505 -0.2996702 -0.48482212
-0.2388094 0.67219234 0.051307723 1.6255864 -0.44685474 -0.4336254 0.09284208 -1.0175284
-0.2588228 -0.47845384 -0.21443413 -0.476031 0.2980372 -0.57962465 -0.19734327 -0.12738502
0.36204356 0.07201361 1.4226379 -0.45599827 0.7183243 -0.64053154 -0.4847859 0.6428061
-0.024155818 0.97382694 0.88799393 -0.21436723 -0.8955913 0.4053824 -0.13030925 -0.18395576
-0.60219413 -0.57946426 -0.68595093 -0.6028359 0.31606394 -0.46830586 0.07231703 -0.10875015
-0.18420897 0.28311926 0.8462627 0.09787266 -0.29825717 -0.3576815 0.33011037 0.0072108954

model/batch_normalization_7/FusedBatchNormV3 f4 [144]
00000000: aa34 a13e 4a25 493d 1c9a d93d c66d 133e
00000010: 60f0 65bd bb32 023e 961d b0be 341b afbd
00000020: 8ba8 893e 4c6a ae3c 9b25 d8bc 0005 903a
00000030: 0b76 3a3d 0d7e 26bc bbbb 143d 2045 76bc
00000040: 1148 6c3d 5b3a 66be 0406 97bc 93b4 013e
00000050: 83ae e33e f5f0 0ebc 82ce 0abe 958e b1bd
00000060: c537 983e 6bdb dbbc 8502 e53d 8bcc c43d
00000070: c25b 0a3d e29f 9cbd 341e b13d c0c5 ecbd
00000080: 4d3a 94bc eeea da3d f8c6 9cbc 2aa8 513e
00000090: 047f a73d 8fc3 1bbe a2fb 6b3e 5911 5b3d
000000a0: 8527 003e abed 323e f05f 27be 8db0 2dbd
000000b0: c499 873e 318a b4bd 6994 b6bc b50c d23c
000000c0: 6e99 2b3e bcec d8bd 2a27 0cbe 2cc1 a83d
000000d0: 97f5 893e 4e54 11bd 6c5c 8c3d e7ab 3fbe
000000e0: c90e c5bb a34b 61be 2be5 31bd 0757 353e
000000f0: ec44 8fbe 39ac 163e 2728 3fbd 6bda bc3d
00000100: e7f7 b2bd 5727 5cbd 5a8e 013e a5a1 0d3e
00000110: 796f 55bd e2bb 0a3e 6e1a 213d 1fb3 273e
00000120: f757 a63d f8e4 2abe 526b 093b 7f22 c5bd
00000130: c629 563e 2ff0 3a3e 7eb3 dcbd 6746 06bd
00000140: c117 8d3e d8c7 a3bd c6c3 9ebd 3179 7a3d
00000150: 287a 963e de97 22be 6ecb 113d b538 9e3c
00000160: c959 d63d b0fe e43c 410a 22bc cea1 563d
00000170: e21a 863b a0ab 6ebb 0d11 7dbd 21b0 5a3d
00000180: 3527 66bd d56d 803c 85e7 2abe a405 2d3e
00000190: 98f4 f63d b32a 2d3d 944f e23d fc12 2ebd
000001a0: cadd 0e3d 0464 aa3d 7296 a8bd 80af fe3d
000001b0: fc4e 3a3d 890b 2abe d5fe 98be f931 903d
000001c0: 0caf c0bd dffd db3d f5ca ba3c 39e5 c4bd
000001d0: 3570 0ebd b803 c6bd 3bd3 bc3d 5cb1 04be
000001e0: 24cd e43c b705 db3d 99d7 c83c 0048 47bd
000001f0: bf57 d93d 308d b43d 681b 423e bcf5 93be
00000200: 6b74 fdbd 2ed4 bf3d d747 1a3c 0855 fcbd
00000210: ff42 45be b77f 953e d9a7 58be 8964 31bd
00000220: c1e0 a1be c934 e93d 7ea4 543d 158c 6d3e
00000230: 3677 91bd e3dd 42bd e65c 673c 743f 1a3f
0.31485492 0.049107827 0.10625097 0.14397344 -0.056137443 0.12714665 -0.34397572 -0.085501105
0.268864 0.02129092 -0.02638512 0.0010987818 0.04552273 -0.010161889 0.036311846 -0.015031129
0.057685915 -0.22483198 -0.018435486 0.1266654 0.4446908 -0.008724441 -0.13555339 -0.086697735
0.2973005 -0.026838025 0.11182121 0.09609326 0.033778913 -0.07647683 0.08648339 -0.11561155
-0.018094206 0.106893405 -0.019137844 0.20474306 0.08178523 -0.15211318 0.23045209 0.05348334
0.12515076 0.17473476 -0.16345191 -0.0424047 0.264845 -0.088154204 -0.022287564 0.025640825
0.16757748 -0.105920285 -0.13686815 0.082399696 0.26945183 -0.03548079 0.068535656 -0.1871792
-0.0060137254 -0.2200151 -0.043431442 0.1770898 -0.2798227 0.14714135 -0.04666915 0.092213474
-0.0873869 -0.053748455 0.12651959 0.13831194 -0.05210826 0.13548234 0.039331846 0.16376923
0.08122247 -0.16688907 0.002096851 -0.0962572 0.20914373 0.18255685 -0.10776423 -0.032781985
0.27557185 -0.079971015 -0.077521846 0.061150733 0.29390073 -0.15878245 0.035594396 0.01931415
0.10466344 0.027953476 -0.00989014 0.052400403 0.00409256 -0.0036418214 -0.06178384 0.053390626
-0.056189734 0.015677372 -0.1668988 0.16896683 0.12058371 0.04227705 0.110503346 -0.042498574
0.034879483 0.08319858 -0.0823182 0.12435818 0.04548548 -0.16605963 -0.2988192 0.070407815
-0.094083875 0.107417814 0.022801856 -0.09614033 -0.034774978 -0.09668678 0.092199765 -0.12958282
0.02792985 0.106944494 0.024516867 -0.04865265 0.10612439 0.08815992 0.18955767 -0.28898418
-0.123757206 0.09366642 0.009416542 -0.12320906 -0.19263838 0.29199 -0.21157779 -0.04330877
-0.31616786 0.11387021 0.051914684 0.23197968 -0.07102816 -0.04757489 0.01412127 0.6025307

model/batch_normalization_8/FusedBatchNormV3 f4 [144]
00000000: fc98 22bf fa37 c63e c19c 98be d249 2fbd
00000010: 7063 a4bc 925a 6cbe 6d1d 21bf 5fd4 65be
00000020: dfb5 4abf 3486 813e 5f23 c13e 1bf3 143e
00000030: 72e9 ad3d b8e7 79be aa6d 4fbe cac4 42be
00000040: 29b2 ccbd 8033 61bd 1359 853e 8d7a b43e
00000050: 4bf0 f73f 1bdb 62be 7aa6 04be 3083 93bb
00000060: 83e4 f9be 20dd 653b a256 d33e fc07 b93f
00000070: 600e 1cbe c0f6 8bbe 4bad 3ebd 3a5c a7bd
00000080: 13a5 fdbe 37ab a5be 0dab 5fbd 6af8 333d
00000090: 9fbe f8bd 1723 803e 938c 11be 4e7c 163f
000000a0: 2512 f43e 7400 42bd b3fc 9abe 87c9 4e3e
000000b0: 5559 0140 ea5c 02bf 6a94 f93e ea75 a43e
000000c0: dbc5 a03e 7bad a9be 556c e63d 4dad 5f3b
000000d0: d346 bcbf d10f debd a09c 18bf 6c2a 22be
000000e0: 8d59 8fbe d144 e6bd 0072 a4be 17ed e33e
000000f0: a554 9bbd 7ce6 89bf b042 823e 94c8 a33d
00000100: 6bfa ccbe 3158 27bf 144b a7be 0f9a 14bf
00000110: d0c6 03bc 3a6c eebe 1910 05bf 0623 253e
00000120: e653 3c3f 8c84 9abe 5090 73bd 4ae5 57be
00000130: 2118 083f 5b8e 53bf e021 81bb d046 fb3e
00000140: 95d6 3f3f 439f 17be f846 aabc 5ddb be3e
00000150: 197c a93d 02ad b23e 00f9 7d3c da0f 1cbf
00000160: 2831 76bf d966 97be 7870 993c 5202 d0be
00000170: 570b bd3e 07b8 d9be 9fce c33d 8587 2a3f
00000180: 96b9 9cbe 82d2 7d3e 6f42 683e fb4b dd3f
00000190: d041 ae3d 9063 8b3f 850f 1e3f b2b1 adbe
000001a0: 1012 f93c f875 98be c9a7 20bf 18e1 94bd
000001b0: e4d4 15be 3978 28be c9e8 ddbd a84e 003d
000001c0: 4a46 8f3e ddc6 c73e 9f98 3b3f 2cd6 21be
000001d0: d408 22bd 766a df3d 6e1c 61bc 9454 45be
000001e0: 651a a4be 306d f2bb a8d4 713d 60e2 c0be
000001f0: d0d6 f9bd aa4c b23f 1fbc a73e a07a 893d
00000200: aabd 8cbf 3d92 18be 5907 1d3d ae2c d63e
00000210: 6044 973e 7573 ea3f 1843 f93c b731 8c3e
00000220: fa46 99be 2ce3 84be ebb1 0bbf db86 c53f
00000230: ddbc 18be 9349 b8be 173d 8bbe 2ddb 2440
-0.63514686 0.38714582 -0.29807094 -0.04279501 -0.020066947 -0.23081425 -0.62935525 -0.22444294
-0.79183763 0.252977 0.37722299 0.14545862 0.08491792 -0.244048 -0.20256677 -0.19020382
-0.09994919 -0.054980755 0.2604452 0.3524975 1.9370207 -0.22153895 -0.12954131 -0.0045017228
-0.48807153 0.0035074428 0.41277033 1.4455562 -0.15239859 -0.27336693 -0.046551984 -0.08171888
-0.49540004 -0.3235719 -0.054606486 0.043938078 -0.12145733 0.2502677 -0.14213781 0.58783424
0.47670093 -0.047363713 -0.3027092 0.20194064 2.0210774 -0.50923026 0.48746043 0.3212121
0.31400952 -0.33140168 0.112511314 0.0034130395 -1.4709114 -0.108428605 -0.5961399 -0.15836495
-0.2799801 -0.112435944 -0.32118225 0.44516823 -0.07584504 -1.0773463 0.25441504 0.079972416
-0.40034804 -0.65368944 -0.32674468 -0.58047575 -0.008043006 -0.46566945 -0.5197769 0.16126642
0.7356552 -0.3017925 -0.0594638 -0.2108356 0.5316182 -0.8263909 -0.003940806 0.49077463
0.749368 -0.14806847 -0.020785794 0.37276736 0.08275623 0.3489762 0.015501261 -0.6096169
-0.96168756 -0.29570654 0.018730387 -0.4062677 0.36922714 -0.42523214 0.09560894 0.66613036
-0.3061034 0.24787334 0.22681592 1.7288812 0.085086465 1.0889759 0.6174243 -0.33924633
0.03040412 -0.29777503 -0.6275602 -0.07269496 -0.14631993 -0.16452111 -0.10835416 0.031325012
0.27983314 0.39018908 0.73279756 -0.15804356 -0.0395592 0.10908978 -0.013739688 -0.19270545
-0.32051387 -0.00739827 0.059040695 -0.3767271 -0.12199175 1.3929646 0.32760713 0.06712842
-1.0995381 -0.14899535 0.038337085 0.41830963 0.29544353 1.8316485 0.0304275 0.2738168
-0.29936963 -0.25954568 -0.54568356 1.543178 -0.14915796 -0.35993633 -0.27195045 2.5758774

model/batch_normalization_10/FusedBatchNormV3 f4 [144]
00000000: 5a99 8fbe 0a13 91bc 392e d53e 60b4 013e
00000010: b434 cf3e 2705 d63d abf0 26bd 4ec0 76be
00000020: f300 1bbe dc78 003e 1005 89be 3429 7cbe
00000030: a1b1 6a3d 6c45 a1bd c6e9 9f3d 3259 78be
00000040: feda 67be 44cf b2bc e301 d93b 8b36 15bd
00000050: 9c12 c93d da33 4dbd a389 64be 630a c63e
00000060: 6a3d 06be b5c1 78be 5133 1bbe 5cc8 8fbe
00000070: 01ce 5bbd 5475 96be e5cc 843d 8966 62be
00000080: 5152 e7bd 11d9 46be 124f 36bd 6c29 0cbe
00000090: fb35 75be df35 3dbe 5ff1 c63d f93b 043d
000000a0: 4e35 f5bc 145c 18be 3f66 8fbd 267d d1bd
000000b0: 9039 64be bb99 b9be 1265 69bc c6d8 f33e
000000c0: 3e1c eebd 2200 c23d 4342 63be f99d 5b3c
000000d0: 4065 f7bd b07b 723e 60ea 36b9 1000 613b
000000e0: 3c3e a4bc b880 c53d 3378 9bbe 6289 1abd
000000f0: 5c95 1ebd c8dd 8bbe 55f4 82be a26d bbbd
00000100: 8d40 94bd 12cd 553d d335 2bbd 338e 933d
00000110: 1f4c f0bd 06b5 133d 5860 18bc 289b 223f
00000120: ae6b e0bd e97b 51be d357 ff3c f2e2 89be
00000130: 036f 8cbe 4dab d23e 70c8 30bd 9bf1 37be
00000140: b2e7 babe 7012 9cbe 226f 693c b0ab 80be
00000150: 5a98 0b3d 7a12 cdbc ca35 17be 65e3 39be
00000160: c0c3 963e b787 2cbd f2ce 0b3f c776 313c
00000170: 8648 cbbc 651b 21be 7d1b 14be 278f 94be
00000180: 7401 463d 21c8 18be 9034 1abe e622 3a3f
00000190: 4c91 953c ee02 c93c cd4d 383e ac30 8bbe
000001a0: 131b 38bd 2ba2 80be e829 c8bd bc44 acbe
000001b0: 425d 53be cc7b d33e 6180 693d eaa1 b9bd
000001c0: 97d2 1dbe 6d1e 61be d7f8 8fbd bef1 bfbe
000001d0: 9dbf 0f3d 5b86 b2be 44ad 37bd c745 343d
000001e0: b429 18be 4719 e7bd 16a1 babe 640e 63bd
000001f0: 0af3 483f 8564 a3be 71fd 283f 9911 34be
00000200: f36b bbbd 66d0 0dbe 7cce 2fbe ed69 b3be
00000210: b024 94be b354 233f ad58 8f3e 185f d83d
00000220: de41 22be 6594 bfbd 7d0a 1b3f 9bf5 343e
00000230: ccc7 873d 7560 a3be 6097 9fbe 0759 08bd
-0.28046685 -0.017709274 0.41636828 0.12666464 0.40469897 0.104502015 -0.040756863 -0.24096796
-0.15137081 0.12546104 -0.26761675 -0.24625093 0.057298306 -0.07874569 0.078082606 -0.24252775
-0.22642133 -0.021827348 0.0066225394 -0.03642897 0.098180026 -0.050098278 -0.22318129 0.386798
-0.13109365 -0.24292643 -0.15156294 -0.2808255 -0.053663258 -0.2938639 0.06484393 -0.22109427
-0.112949975 -0.19418742 -0.044509 -0.13687676 -0.23946373 -0.18477581 0.09714007 0.032283757
-0.029932644 -0.14878875 -0.07001924 -0.10228948 -0.22287583 -0.362501 -0.014245288 0.47626323
-0.116264805 0.094726816 -0.22193246 0.013404363 -0.12079859 0.23679996 -0.00017444184 0.0034332313
-0.020049207 0.09643692 -0.30365142 -0.037728675 -0.03871666 -0.27317643 -0.25577036 -0.0915177
-0.072388746 0.052197523 -0.041799378 0.07204857 -0.11733269 0.03606131 -0.009300314 0.63518
-0.10958038 -0.20457424 0.031169808 -0.26930958 -0.27428445 0.41146317 -0.043159902 -0.17963259
-0.36504894 -0.30482817 0.0142476875 -0.25130987 0.03408084 -0.025033224 -0.14766613 -0.1815315
0.2944622 -0.042121615 0.5461265 0.010831541 -0.024814855 -0.15733106 -0.14463611 -0.29015467
0.04834123 -0.14920093 -0.15059114 0.727095 0.01825776 0.02453753 0.17998429 -0.2718557
-0.044947695 -0.25123724 -0.09773618 -0.3364619 -0.20641044 0.41305387 0.057007197 -0.09064086
-0.15412365 -0.21984263 -0.07029884 -0.37489122 0.035094846 -0.3486813 -0.044842973 0.044011857
-0.14859658 -0.11284118 -0.36451024 -0.055433646 0.7849585 -0.31912628 0.6601172 -0.17584838
-0.09151449 -0.13849029 -0.17168611 -0.35041752 -0.2893424 0.63801116 0.27997342 0.10565013
-0.15845439 -0.09354476 0.6056288 0.17671816 0.06629905 -0.31909528 -0.31170177 -0.033288028

model/batch_normalization_11/FusedBatchNormV3 f4 [144]
00000000: 9068 9a3d 93a5 8abf 8e15 5c3f 6431 db3e
00000010: 4e4b 593f 1505 133f 07e9 e4be ee20 1cbf
00000020: b37e e13e c29e 47bf 49e7 3b3f fc26 55bf
00000030: 29cb 373f e591 04bf 2ff6 96be 6eee 22be
00000040: 6084 a53e 8e31 8bbf 24c5 96bf 976f f6be
00000050: 138d e13e e8da 13bf bb9a 29bf b87d c33f
00000060: 20af febe 49ee 2d3f b19d 02bf 1778 2fbf
00000070: 1665 e3be a6f5 10bf 425a 8c3e 0e76 e7be
00000080: 6849 e03e 1351 08bf 835f 98bf 7433 003f
00000090: 6e1a debe 3f05 f4bd d65e 963e a451 b23e
000000a0: ee01 ea3e 6edc 5abe 3019 bdbf cde2 f6be
000000b0: f45b 59be 0181 b0be 3387 283f 8ebf 2240
000000c0: 75e5 cbbe 5208 2e3f 1930 673e f082 9dbf
000000d0: d234 053f df03 d53f 4ffc 9abe b920 9b3d
000000e0: 46df e3be 8be9 c33f 6fb1 10bf 62b3 00bf
000000f0: 765a 673f 349e 18bf 14ae 55bf 508b f6be
00000100: 5225 b6be 8cb6 80be 9b6c 2abf 236b 863e
00000110: 16a1 94bf 1123 d13e 5cb3 ef3e 6dc8 0240
00000120: ec78 a1bd a298 d7be 3e2a cebe c69f b03e
00000130: 9f0f 973e fada d33f f876 173f ae3d 1bbf
00000140: 168c febe 7ea6 dcbe 6095 98be 5e8e 3bbf
00000150: 1d96 60bf 1e1c bb3e c83b aabe 8ac2 1b3e
00000160: 9501 c63f 358a 5e3e ff4b cc3e a0b7 243f
00000170: 4efe de3e 5021 e3bd 9c93 08bf 3088 5c3c
00000180: 8c6f 773e 7288 c53e 8533 fdbe e7a5 2040
00000190: 3886 6a3e d032 e63e c9f0 ff3e f8b6 96be
000001a0: b0d9 a8be 1e42 8d3e 88ff 133f 3cfa c5be
000001b0: c3c2 d73e 6abd 913f 25ce ec3e bc56 50bf
000001c0: 83e2 31bf 9aaa 40bf 5bb0 3cbf 4e1e eebe
000001d0: 2261 263e 883c 88be cfae 1dbf b3c1 8e3e
000001e0: 08c1 cb3c bfd0 143f f768 5e3f c4c4 9cbf
000001f0: b1e3 7140 3f31 e2be 4698 cc3f 3616 8fbe
00000200: 8643 11bf 9189 0b3f 2862 17bf ae64 2abf
00000210: 92db fabe 1b22 cd3f 6132 be3f d27a cabe
00000220: d46e 263f c981 96bf 1726 de3f c3b8 f83e
00000230: e775 ea3e 0aa4 bbbe 147d bfbd cfad 473e
0.07539475 -1.0831779 0.8597039 0.4281112 0.8488053 0.5742963 -0.44709036 -0.60987747
0.44041976 -0.7797662 0.7339979 -0.8326261 0.7179437 -0.5178512 -0.29484698 -0.15911266
0.32327557 -1.0874498 -1.1778913 -0.4813201 0.44052944 -0.577559 -0.66251725 1.5272741
-0.49742985 0.6794172 -0.5102187 -0.6854262 -0.4441306 -0.5662483 0.2741261 -0.45207256
0.43806005 -0.5324871 -1.1904148 0.5007851 -0.4337954 -0.11915063 0.2936923 0.34827912
0.45704597 -0.2137315 -1.4773312 -0.4821991 -0.21226484 -0.34473422 0.658313 2.5429416
-0.398235 0.67981446 0.22576942 -1.2305584 0.5203372 1.6641806 -0.3027062 0.07574601
-0.44506282 1.5305647 -0.5652074 -0.50273716 0.9037241 -0.596164 -0.8346875 -0.48153162
-0.35575348 -0.25139272 -0.6657197 0.26253614 -1.161166 0.40847066 0.46816528 2.043483
-0.07884392 -0.42108637 -0.40266603 0.34496897 0.29504105 1.6551201 0.59165907 -0.6064099
-0.49716252 -0.43095773 -0.29801464 -0.7326411 -0.87729055 0.3654489 -0.33248734 0.1521093
1.5469233 0.2173241 0.3990173 0.6434269 0.43553394 -0.11090338 -0.53350234 0.013460204
0.24163646 0.38580662 -0.4945337 2.5101259 0.22902763 0.44960642 0.49988392 -0.2943647
-0.32978582 0.27589506 0.57811785 -0.38667476 0.4214078 1.138593 0.46251026 -0.81382346
-0.69486254 -0.7526032 -0.737066 -0.46507496 0.1624799 -0.26608682 -0.6159486 0.27882156
0.024872318 0.5813102 0.86878914 -1.2247548 3.7795222 -0.44178197 1.598397 -0.27946633
-0.5674366 0.54506785 -0.5913415 -0.66559875 -0.48995644 1.6026033 1.4859124 -0.3954683
0.6501286 -1.1758357 1.7355374 0.48578462 0.45793077 -0.3664859 -0.09350029 0.19499896

model/batch_normalization_13/FusedBatchNormV3 f4 [256]
00000000: ba67 bb3c 9824 823d fd07 fe3d 139c eabe
00000010: 3b5b 52be 3203 4e3e c07c 65be d8c1 873d
00000020: 9890 a23e e4f3 8f3d 15f5 02be c983 9fbe
00000030: e63d 0bbe cfd2 83be 1126 92be e10f 3f3e
00000040: b29f 27be db6a a2bb ebde 313d dc43 27be
00000050: f188 823d c2a5 c53e f8d7 16be 7acd 03bd
00000060: c0c5 db3c 9d7a ac3c 1a8d e93d 4f45 ddbd
00000070: 349a 3a3e 62e7 55bc fe18 063e 7a33 c6ba
00000080: c114 bebd 9b77 90bd 0c3e 1abc 125c 47bd
00000090: 4629 93bd 07a3 663c a8ac 9bbe 94bd a23b
000000a0: e63e 88be 1aff 1a3e 20ce 04bd 20f5 25be
000000b0: 5536 03bd 3588 25bd 6859 18bd 8e06 463d
000000c0: b1cf 0cbd 2c78 3e3e 346a a5bd 5bab 35be
000000d0: 15e9 b83e f93f 023e 765e ea3d 6ac7 d9bd
000000e0: 5620 6e3c f9c1 bbbd 8e3a e4bd 13e8 04be
000000f0: 2b3e a53d 8df5 513c 888c f9bd 0dd7 94bd
00000100: d7a7 aebe 2369 8cbc 8170 723d f732 09be
00000110: b968 183e 3fcf 8bbd 4d9d 82be 3e30 6c3c
00000120: 7f22 5abe a630 8dbd 8561 333e 1a36 ac3d
00000130: 73a0 65be 52e0 313d b66c a83d 3821 92be
00000140: 399b 043e b064 d43d 72e4 d43b 20a1 fcbc
00000150: 4d14 58bd 6a77 953d f1df 8cbd f12a c6bd
00000160: ab41 6b3e ef30 81be f658 233b 9b36 a93c
00000170: 891f 1fbe 10f7 f4bd 7ec3 a6bd 3cf6 afbd
00000180: 5b9b 12be e2d1 1c3e f4fd 4d3e ca45 f3be
00000190: f8b6 18be f418 1d3e b868 9cbd 4c9f 16bd
000001a0: 8fa1 05be e0db 22bd aeef 933d 370f 2dbd
000001b0: aa38 08bd bcb0 263e 3354 fc3d f09d 63bd
000001c0: 0c9d d6bd e4dd 16ba 2faf 823e caf6 e5bd
000001d0: 79de 4fbd 1d89 9abe d5f9 363c 41a6 933d
000001e0: be59 b53d 54a8 82bd c1ab 3d3d 2cde 42be
000001f0: f681 02bf b2f9 88bc ac9c 1d3d 1880 bc3d
00000200: d5e4 e6bd f8a8 0b3f 2066 3dbe 4a4a 4dbe
00000210: 4045 01bd 191e 06bd de43 06bd d0fc 03be
00000220: 26d9 8fbc b8a6 0b3e b66c 7abd beed 853d
00000230: 62e4 0cbe 22d8 99be 2db0 01be f998 a3bd
00000240: 5819 ce3d d79a bcbd 1952 4e3e dcbd e13d
00000250: 7ccf 92bb 700e 35be d6fb f83d b4ee e73d
00000260: e8cb ea3c b531 25be cc38 0dbd b3d9 e73c
00000270: 8031 d7bd 1239 ac3e 60ac ca3d 3b01 1d3e
00000280: 1c77 d93d 88da 85bd 41cd 033e 30e5 9dbd
00000290: 8cda a93d 7de6 a53c 87f7 933c 930d 0d3c
000002a0: d718 71be 195c f8bd 10cc 2e3e 8e9b d13d
000002b0: 8426 663e b392 d33e 405f 17be 1203 1dbd
000002c0: b14d ba3c 61ad ed3d bd42 8ebd 6555 8abd
000002d0: 8da0 86bc 552d 3c3b dcce 7e3e fcc6 f13d
000002e0: 807a d8bd 8331 793d a61b dabd e69b e7bd
000002f0: 9bc8 26bd 908e ddbd 6ca2 93ba 4ea3 babc
00000300: 4d9f c63d 1d07 b5be 4fba 2abe d898 33bd
00000310: 966d 6d3c f4c7 d93d 20ff 9a3e 8cca babd
00000320: 0134 66bc 2e1d cc3d 8be4 173e 362f 0bbd
00000330: 0a72 403a 8390 163e a557 633d 8977 313d
00000340: e0df 953c 2906 2a3d a31a d73c 55f2 4abe
00000350: fc47 0dbe 3b02 e2bd 947b 6fbd 4171 efbc
00000360: 574a 31be 6ed3 78bd 0480 e2bd 97b4 a1bd
00000370: 4538 3a3e d40e 373d 245a 953d 9676 3fbd
00000380: 084d c43d cd32 2e3d 3b1b 2dbe fc2b 8dbe
00000390: ddcc 473c a0c7 d938 dd2a 2d3d 0965 3bbe
000003a0: 8bca 20bd 38d0 82bd 1c26 183e 3b47 0ebe
000003b0: 9099 a1be aa7f 89bc 976d 133e 7c0a 6ebe
000003c0: 0c2f 04be 18a7 f5bd 89b1 ccbd 5f30 c43c
000003d0: d541 a0be 245a e2bd 6904 a3bd 4500 9dbd
000003e0: 174d 11be af17 e03d 77b3 253d 78ef 053e
000003f0: 79ae fa3d 425a 8a3e ddb8 6a3e bd13 aebe
0.02287661 0.06354636 0.124038674 -0.458222 -0.20542614 0.20118406 -0.2241087 0.0662877
0.3175094 0.0702894 -0.12788804 -0.31155232 -0.13597831 -0.25746772 -0.28544667 0.18658401
-0.16369513 -0.004956586 0.04342548 -0.1633448 0.06373776 0.38603026 -0.14730823 -0.03217838
0.026827693 0.02105456 0.11403866 -0.10804235 0.18222886 -0.013055654 0.13095471 -0.0015121542
-0.09281302 -0.07054063 -0.009414207 -0.04867179 -0.07185607 0.014076955 -0.30405164 0.004966447
-0.26610488 0.15136376 -0.03242314 -0.16206789 -0.032034237 -0.0404131 -0.03719464 0.048346095
-0.034377757 0.1860053 -0.08076897 -0.17741148 0.36115327 0.12719716 0.11443798 -0.10633738
0.014534077 -0.09167857 -0.11143981 -0.12979154 0.08068498 0.0128148915 -0.12185007 -0.0726758
-0.34112427 -0.017139977 0.059189323 -0.13398348 0.14883699 -0.068266384 -0.25510636 0.014415799
-0.21302222 -0.068940446 0.1751767 0.084087566 -0.22424488 0.04342682 0.0822386 -0.2854097
0.12949838 0.10370767 0.0064969594 -0.03083855 -0.052753735 0.07298167 -0.06878651 -0.09676159
0.22974269 -0.25232646 0.002492485 0.02065592 -0.15539373 -0.11961186 -0.08142756 -0.08591887
-0.14317076 0.15314439 0.20116407 -0.47514182 -0.14913547 0.1534155 -0.07637161 -0.03677301
-0.13049911 -0.03976047 0.0722345 -0.042250838 -0.033257164 0.16278356 0.12320747 -0.055570543
-0.10479173 -0.000575511 0.2552428 -0.11228712 -0.050749276 -0.30182734 0.011167963 0.07209445
0.088550076 -0.06379762 0.046306375 -0.19030064 -0.50979555 -0.016720627 0.038479492 0.092041194
-0.11274115 0.545547 -0.18495989 -0.2004787 -0.031560183 -0.032743547 -0.032779567 -0.12889409
-0.0175596 0.13637817 -0.06113883 0.06539486 -0.13758996 -0.3004771 -0.12664862 -0.079881616
0.10063428 -0.09209221 0.20148505 0.11022541 -0.0044803005 -0.17681289 0.12157409 0.11324826
0.028661683 -0.16132243 -0.034477994 0.02830205 -0.10507488 0.3363729 0.09896159 0.153325
0.106184214 -0.06535822 0.12871267 -0.0770973 0.08293638 0.020251507 0.018062366 0.008609193
-0.23544632 -0.12126941 0.17070031 0.10234748 0.2247563 0.4132286 -0.14782429 -0.038333006
0.022742124 0.11605335 -0.06946323 -0.06754569 -0.016433978 0.0028713543 0.24883598 0.118055314
-0.1057024 0.060838234 -0.10649805 -0.11309032 -0.040718656 -0.10818207 -0.0011263615 -0.022782948
0.09698353 -0.3535699 -0.16672634 -0.043846935 0.014491459 0.10633841 0.3027277 -0.09120664
-0.014050485 0.09966503 0.14833276 -0.03398057 0.0007341212 0.14703564 0.055503506 0.04332689
0.018295228 0.04150978 0.026257819 -0.19819005 -0.13796991 -0.11035582 -0.058467463 -0.029228808
-0.17313515 -0.06074851 -0.11059573 -0.07895773 0.18185528 0.044691876 0.072925836 -0.04674395
0.09585005 0.042528916 -0.16904919 -0.2757262 0.012194839 0.000103845494 0.042277206 -0.1830026
-0.03925566 -0.06387371 0.14858288 -0.1389436 -0.3156247 -0.016784508 0.14397274 -0.23246187
-0.12908572 -0.11994761 -0.099948 0.023948846 -0.31300226 -0.11052349 -0.079598255 -0.07666067
-0.14189564 0.10942017 0.040454354 0.13079631 0.12240309 0.27021986 0.22922082 -0.33999434

model/batch_normalization_14/FusedBatchNormV3 f4 [256]
00000000: f019 2b3f 3e1b be3f 306e 8c3f 1898 fabe
00000010: 6a4a adbe 1945 e7bf 4245 0e3e 15de c2be
00000020: 58c1 9c3f ae81 993e b635 aebd 8c19 07bf
00000030: b146 17be 8635 93be cb54 b3be 35c8 383e
00000040: 68a1 20bf d53b 213f 745a f43d ea44 46be
00000050: db65 293f af4a f1bf 4cdb 433e ebff 26bf
00000060: dce6 2fbf 06a0 dcbe f532 463e f26b c33e
00000070: ac20 a93d 725e acbe fd6c 0840 85ba 6a3f
00000080: 56da ffbe 8296 98be fe75 543f a842 f93e
00000090: 691b 8d3e 025a 14bf 6cdc 0abd 4c1e 0dbd
000000a0: 9a7e 8bbe 499e c03f 26e9 63bd c3b7 2e3f
000000b0: 2ecd 96be 9465 32bf f680 2fbf 60e4 9f3f
000000c0: ad85 89be 9ebf 0bbe 701c 773f 74d4 43be
000000d0: e33f e03f ebbd 733f aed6 c63f de32 583e
000000e0: 42a7 633f 0516 56bf 944d b4bd 64c3 0dbf
000000f0: 9c81 4dbe 5640 1a3e ca67 a53e 28ac a4be
00000100: 9d70 f13e 9ee7 55bf 291b 043f 4469 d73e
00000110: e2bf 833f 7d5f 253e cf5d 2d3f 5285 c83e
00000120: 591f 1a3f 1835 f1be 1576 943f 716a 9bbe
00000130: 1a95 27bf 5b98 ea3f dc05 0dbf cc74 1bbf
00000140: 5e5a 083f 2a80 153f 3942 1fbf 5943 743f
00000150: 86d8 65be a67b 45be 5e04 1dbe 896a 7b3f
00000160: 42c9 bcbd 4ad8 a9bd ea19 063f f2fd 123f
00000170: d939 4b3e 98ff 8c3e 5480 d5be 8c99 c4be
00000180: 20cc 073e 97c8 233f 8281 eabf 9fad edbe
00000190: 6d38 163e 2a4c cd3e 1e00 1fbf bc12 89be
000001a0: 84a7 e83e 1b3b 0abf 5e52 1bbe ccfc dd3e
000001b0: be86 793f 4f1e c03f aa13 a53e 2bf8 673e
000001c0: b4b9 013f 9345 063f d75c c43f 4e50 61be
000001d0: f9fb 88be 2a5f 21bf 52f5 20bf dbc3 3e3f
000001e0: 502e e93e 5abc 0e3f c6ff 4e3f 08f7 37bf
000001f0: c03a 0dbf 28c7 5ebc 561f cb3e 000e 9c3f
00000200: 2772 503f a613 3c40 e6dc 61be e7c8 373f
00000210: ed8e ba3f f449 9dbc 78c4 c83e c0c8 8dba
00000220: c668 203f 96f8 23bf 2a37 213f 1f90 803f
00000230: f0ca 443c 0256 f23d 3cb5 70be 4420 723f
00000240: 3a83 38bf a288 423f f5b8 1e40 97f0 973f
00000250: 0dda 09bf 2972 a43d 5c18 6e3f 0c69 0cbf
00000260: b7ad 163f 2ea6 163e 248c 4fbe 1294 133f
00000270: c5fe 693e 2f0b 2940 7ead fa3f 082a be3f
00000280: e4f1 f7be 2af8 213f 5970 2d3f 6e1d edbe
00000290: 543f 6e3f 1177 6c3f 5682 df3e 0898 143f
000002a0: 2e72 b1be fa8d 8c3f 24f0 13bf 2a7f c1bd
000002b0: f8a4 7dbc e766 d73f b7c3 0bbf d487 2a3f
000002c0: 8e1d 403f d20a a3be 77e6 0c3f 434a aabe
000002d0: 7e9e cc3e 99a1 ef3e 5949 f1bf e2b7 67be
000002e0: 4926 143f 2a96 dbbe ca56 733f 1e2c 3d3f
000002f0: 1d12 d23e b940 2dbe 6c75 babc 6a85 1a3f
00000300: 1555 fc3f 4b59 48bf e511 c23e ba08 dabd
00000310: f22e 293f 0162 d1be d003 a33b 24a2 f4bd
00000320: 7a4a ff3e 74a3 01bf 28b0 0abf 6538 97bf
00000330: 9cc3 bb3f e61c 203f c1d6 09bf d038 963e
00000340: 6074 673f d8db 723e f808 ccbe 06a4 853e
00000350: e1dd 9bbe e65a 20bf e153 2ebf ccae 2dbf
00000360: 52b6 733f 3cf8 bfbe 9452 e93d 8621 79be
00000370: 0ae4 04bf 4599 823f c72f 303f feb6 7b3f
00000380: d6da 073f d0b1 e43b c68c a9be d47a edbe
00000390: dcaa 623f cb90 e33c 110a 7dbe 3ac2 d6be
000003a0: bb67 cf3e c5c6 cb3e cc2b f53f cac6 e03e
000003b0: 0fd6 08bf 2b90 7cbf de94 87be d25a c83e
000003c0: f10b 7f3f e831 2abe 8376 4e3e 8952 1fbf
000003d0: 984f 12bd d4e4 213f 06b5 f0be 380f 633c
000003e0: d148 38bf c2f4 27bf 2fc3 bfbd 4abd 443f
000003f0: ea6c b43e 3e0e 2240 2caf 2f3f 4943 03be
0.6683645 1.4852064 1.0971127 -0.48944163 -0.33845836 -1.8067962 0.13893607 -0.3806006
1.2246504 0.2998175 -0.08506338 -0.52773356 -0.1477306 -0.28751773 -0.3502563 0.18045123
-0.62746286 0.6298192 0.11931315 -0.19362226 0.66171044 -1.8850917 0.19126624 -0.6523425
-0.6871164 -0.43090838 0.19355376 0.38168293 0.08258185 -0.33665806 2.131652 0.91690856
-0.49971265 -0.29802328 0.8299254 0.48683667 0.27559975 -0.5794984 -0.033901617 -0.03445272
-0.27245027 1.5048305 -0.05564227 0.6824915 -0.29453415 -0.69686246 -0.68556154 1.249157
-0.268598 -0.13647315 0.9652777 -0.19124013 1.7519497 0.95211667 1.5534265 0.21113154
0.8892709 -0.8362735 -0.08803859 -0.5537627 -0.20068973 0.15063605 0.32305747 -0.32162595
0.4715623 -0.83556545 0.51603943 0.420725 1.0292933 0.16149707 0.67721266 0.39164215
0.6020408 -0.4711082 1.1598536 -0.30354646 -0.65461886 1.8327745 -0.55087066 -0.6072509
0.5326289 0.5839869 -0.6221042 0.95415264 -0.22445878 -0.1928545 -0.15333697 0.98209435
-0.092180744 -0.08293207 0.5238329 0.5741874 0.19846286 0.27538753 -0.4169947 -0.38398397
0.13261461 0.6397795 -1.8320773 -0.46421525 0.14669962 0.4009717 -0.62109554 -0.26772106
0.45440304 -0.5399644 -0.1516814 0.4335693 0.97471225 1.500925 0.32241565 0.22653262
0.50673985 0.5244991 1.5340832 -0.2200329 -0.2675474 -0.63035834 -0.6287433 0.745176
0.45543146 0.5575615 0.8085903 -0.71861315 -0.5516777 -0.013597287 0.39672345 1.2191772
0.8142418 2.9386992 -0.22056922 0.7179093 1.4574867 -0.019200303 0.39212394 -0.0010817274
0.6265987 -0.6405119 0.629748 1.0043982 0.012011275 0.11832811 -0.23506635 0.94580483
-0.72075236 0.75989735 2.480039 1.1870297 -0.53848344 0.08029587 0.9300592 -0.5484779
0.5885882 0.1471183 -0.20268303 0.5764781 0.22851093 2.6413076 1.9584196 1.4856577
-0.48426735 0.63269293 0.67749554 -0.46311516 0.9306538 0.9236918 0.43654126 0.5804448
-0.34657425 1.0980828 -0.577883 -0.09448083 -0.015481226 1.6828278 -0.5459551 0.6661351
0.75045097 -0.31844193 0.5503916 -0.33259782 0.3996467 0.46802977 -1.8850509 -0.2262874
0.5787092 -0.42888004 0.95054305 0.7389544 0.41029444 -0.16919221 -0.02276107 0.60359824
1.9713465 -0.7826125 0.37904277 -0.10646196 0.6608726 -0.40895084 0.0049748197 -0.11944988
0.4986151 -0.50640035 -0.54175043 -1.1814085 1.466907 0.62544096 -0.53843313 0.2934022
0.9041195 0.23716676 -0.39850593 0.26101702 -0.30442718 -0.626387 -0.6809674 -0.67844844
0.95200074 -0.37494075 0.11392704 -0.24329194 -0.5191046 1.0203024 0.688229 0.983261
0.5306829 0.0069792047 -0.33115214 -0.46382773 0.8854196 0.027779004 -0.24710871 -0.41945058
0.40508828 0.39800087 1.9153991 0.43901664 -0.5345163 -0.9865748 -0.26480764 0.3913179
0.99627596 -0.166206 0.20162396 -0.62235314 -0.035720438 0.6323979 -0.4701311 0.013858609
-0.7198611 -0.65607846 -0.093634 0.7685133 0.35239345 2.5321193 0.68626666 -0.12818636

model/batch_normalization_16/FusedBatchNormV3 f4 [144]
00000000: b5d9 18be cf92 b8bd a9b0 e73d 9a2a 33be
00000010: beb9 d9bc 4ee5 083c 320b 1fbe 208a 01ba
00000020: 9c7c 69bd 1ca2 4bbe 9bc1 a63d 3460 8ebe
00000030: 57eb 03be c4fb e93d 4829 16bd d84c 83be
00000040: 0b7b eb3d 9cd4 29be 068e 20be d890 ce3b
00000050: 88da 5dbe f2df 343d 109c 833d 7a46 aabe
00000060: 4c30 85be 5b25 1ebe d91b f6bd 7656 a63e
00000070: 4b9d 583e d55d 7bbe cc9d a23d 4a3b 033d
00000080: bed1 883d bf96 3a3d 2d98 29be 5cdc 66be
00000090: 1682 29be 25dc 63bd 4d20 47bd 40ed 1ebe
000000a0: fd0c 40be fa99 d3bd 6296 54be a364 193d
000000b0: 8f31 7b3d 9bb8 403d f61f 28bd 5416 e7bc
000000c0: 1425 a9bd 6c0e e3bd 1a3d 4bbe 0f91 a6be
000000d0: 2ddb 94be f841 043e 43c5 123e a460 38be
000000e0: 6f20 1b3d 2bcc 66be 2631 7abd 5b98 36be
000000f0: fd1f 58be e227 46be fabd 0cbe dea8 31bd
00000100: 8b1c 7bbe 36f6 51bc 08c0 77be e979 c73d
00000110: 7a5d 69be e86c dcbc f5e4 a8bc 2c67 b6be
00000120: 08d2 343e 539c 64bd e79c 1abe 4f6b a73e
00000130: 2793 86bd a6aa b4bd 8d5e 0ebe 7a4c 06be
00000140: c12c 7abe 9feb a23d f73b c0be e144 56be
00000150: 0a70 bfbe 1aab 493d ca0a 75be 617a bcbe
00000160: a23d c3bd 9486 09be 0392 113e 224c 13be
00000170: a9bc fe3d 804f 51bd c901 85bc 93db 01be
00000180: 7044 88be 3bb3 363e a6a8 06be 52c9 18be
00000190: 55b3 7e3d 0a20 debd 4425 a8bc fbc6 03bd
000001a0: 3179 37be 2ec9 03bd 30ce 25be d712 4cbe
000001b0: 5c7e 94be d1ae 12be 137d 75be 3ddb d5bd
000001c0: 185a acbc 683e 94bc 367a 26bc 4c8d 56be
000001d0: d918 703e ca27 2c3d 5f7a 02be aa38 4abe
000001e0: 488b 42be 02fd 5cbe 3f45 d33d 23df 8fbe
000001f0: 02ad 023e 2138 643d e010 81bc cef9 203e
00000200: 7e37 02be 182f 8dbd 8880 89bd 0a4e 43bd
00000210: 98d3 353e 5251 ee3d 9213 b7bc 6ccc a2bd
00000220: 361f a83d 3e39 343d 8a92 eabd 73b6 31be
00000230: df49 4a3e 8334 98bc a817 eebd c590 0e3e
-0.14926799 -0.090123765 0.11312992 -0.1749672 -0.026577827 0.008355452 -0.15531614 -0.00049415417
-0.057003602 -0.19886059 0.08142396 -0.27807772 -0.12882744 0.114249736 -0.036660463 -0.25644565
0.11498078 -0.1658501 -0.15679178 0.006303888 -0.21665394 0.044158883 0.06426251 -0.33256894
-0.2601341 -0.15443937 -0.1201703 0.3248784 0.21153753 -0.24547513 0.079402536 0.032038964
0.0668063 0.04555392 -0.16561957 -0.22544998 -0.1655353 -0.055629868 -0.04861479 -0.15520191
-0.18754955 -0.10332103 -0.20760491 0.03744949 0.06132656 0.047051053 -0.041046105 -0.028208889
-0.08259025 -0.11086735 -0.19847527 -0.32532546 -0.29073468 0.1291579 0.14333062 -0.18005615
0.037872728 -0.22538821 -0.061082028 -0.17831556 -0.21105953 -0.19351152 -0.13744345 -0.043373935
-0.24522607 -0.012815049 -0.24194348 0.097400494 -0.22789565 -0.0269074 -0.020616988 -0.3562559
0.17658246 -0.055813145 -0.15098916 0.32699057 -0.06571036 -0.08821611 -0.13903256 -0.13115111
-0.24431135 0.079550974 -0.3754575 -0.20924713 -0.37390167 0.04923544 -0.23929897 -0.36812118
-0.0953324 -0.13430244 0.14215855 -0.14384511 0.12438328 -0.051101208 -0.016236203 -0.12681417
-0.26614714 0.17841808 -0.13150272 -0.14920548 0.062182743 -0.10845955 -0.020525582 -0.032172184
-0.17917325 -0.03217428 -0.16191936 -0.19929062 -0.29002655 -0.143245 -0.23973493 -0.10442207
-0.021039054 -0.018096164 -0.010160973 -0.20952338 0.23446979 0.042030133 -0.12741993 -0.19748178
-0.18998444 -0.2158089 0.10315942 -0.28099927 0.1276131 0.05571759 -0.015755117 0.15720293
-0.12716481 -0.06893748 -0.067139685 -0.047681846 0.17756498 0.11636604 -0.022348199 -0.07949147
0.08209078 0.043999903 -0.11453731 -0.17354755 0.19754742 -0.018579727 -0.11625606 0.13922413

model/batch_normalization_17/FusedBatchNormV3 f4 [144]
00000000: 6e45 75bf dfe6 b5bf 7de1 2d3f 5484 debc
00000010: a9a0 cebf 8af7 bc3e e64f 52be fcd2 02be
00000020: 6355 37bf 6b32 6bbf f0da 67bf faea b03e
00000030: ecd3 e03d 1cac b3bf 06e9 38bf e045 1abf
00000040: 9b1a 78be 5171 d1be 8e61 9fbe d0ea d8bf
00000050: aa19 10bf 0515 5ebf 0144 383f 6092 da3e
00000060: 9e65 12bf f0cc aa3e 9d18 1a3f 3c17 933f
00000070: 0242 2f3f b423 26bf 6691 273e 5450 a53e
00000080: 3dd3 c5be 5486 9abf c9ff 9a3e 1e04 24bf
00000090: 3606 4bbf 40b1 81bf 925d adbf 184b abbe
000000a0: 4d48 23bf d757 cdbf ffab b0be 3128 563f
000000b0: 51f4 173f e52a 86bf 75ea 1bbf 1432 f93e
000000c0: bcbf 4b3f 0c59 69bf c9fe 24bf f45a 1c3e
000000d0: e327 213e e292 d43e 3b61 f23f 925a 19bf
000000e0: aa84 7bbf d62a 14bf 2c20 a83e 70be 3cbf
000000f0: f590 75bf 2876 073f aa14 5c3f e367 c9be
00000100: 108d 9fbd 305f 5a3f 545d 09bf 5804 f93e
00000110: 5ad7 d2be 7474 11bf b82c ad3e 3413 11bf
00000120: c213 1b3f 3aa9 ccbe e72a 26be de9c 3040
00000130: 7c07 f2bf 32ef 113e 0ba5 b4bf 0e5c b2bf
00000140: beec 2e3e 4b7e 0abf 67f1 ecbe f8d2 d93e
00000150: 1215 0bbf 99c9 413f 2732 07bf 3ab8 16bf
00000160: 5d54 b6bf 484d 1dbf 436d 1f3f 3205 f8be
00000170: 8679 603f 2adf 55be f90d 21bf f6c4 133f
00000180: 934a 773e bbd1 693f 5884 9a3e e767 8fbe
00000190: 8f3e df3e eeae 2cbf d090 83bc 1261 96bf
000001a0: b185 72be bd9c 2ebf 386c 62be f1da c1be
000001b0: 4a1f 2ebf 4085 8ebf 6cef e7be be01 25bf
000001c0: 3547 44be ca7e d5bf e25e a4bd b6fb 373d
000001d0: d60b 053f 52c4 c3bf 2739 d63d 8b5a 8b3e
000001e0: 200b 1ebf f3dd b43e aa89 0e3f b82d 54bf
000001f0: a2ea 51bf d254 e23e b496 76bf 287c 363f
00000200: d451 48bf 5be7 20be 3c7c 12bf c410 26bf
00000210: c56f 493f c0c3 0bbf e2c7 46bf 1fe0 843e
00000220: 5e1b 573f ba78 303e 988e 48be 31e0 10bf
00000230: 2eab c0be ad57 febe 9078 ccbc 4c83 04bf
-0.95809066 -1.4211081 0.6792219 -0.027162708 -1.614278 0.36907607 -0.20538291 -0.12775797
-0.71614665 -0.91873807 -0.9056845 0.34554273 0.10977921 -1.4036899 -0.72230566 -0.6026287
-0.24228899 -0.40906766 -0.31129116 -1.6946659 -0.5628916 -0.86750823 0.71978766 0.426898
-0.57186306 0.3335948 0.60193807 1.1491466 0.68460095 -0.6489823 0.16364059 0.32287848
-0.38637725 -1.2072244 0.30273274 -0.6406878 -0.7930635 -1.0132217 -1.354418 -0.3345573
-0.637822 -1.6042432 -0.34506223 0.8365508 0.5935717 -1.048184 -0.6090463 0.4867102
0.7958944 -0.911515 -0.6445127 0.15269071 0.15737872 0.41518313 1.8935922 -0.59903824
-0.98249304 -0.5787786 0.32837045 -0.73728085 -0.9592431 0.5291467 0.8596903 -0.39337072
-0.077905774 0.85301495 -0.5365803 0.48636127 -0.41179925 -0.5681832 0.3382318 -0.56669927
0.60577023 -0.3997286 -0.16227303 2.7595744 -1.8908534 0.14251402 -1.4112867 -1.3934343
0.17082497 -0.5409896 -0.46277925 0.4254377 -0.54329026 0.7569824 -0.528109 -0.5887486
-1.4244496 -0.61446047 0.62276095 -0.48441464 0.8768543 -0.20885912 -0.62911946 0.57722414
0.24149542 0.9133565 0.30179095 -0.2800896 0.43602416 -0.6745442 -0.016060263 -1.1748374
-0.23683812 -0.68207914 -0.22111595 -0.37862352 -0.68016493 -1.1134415 -0.45299852 -0.64455783
-0.19167788 -1.6679318 -0.0802591 0.044917785 0.51971185 -1.5294287 0.1046012 0.27217516
-0.61735725 0.35325584 0.5567881 -0.8288226 -0.81998646 0.44205338 -0.96323705 0.712832
-0.7824986 -0.15713255 -0.57220817 -0.6486933 0.7868617 -0.54595566 -0.77648747 0.2595224
0.84026134 0.17233554 -0.19585645 -0.5659209 -0.376306 -0.49676266 -0.024959832 -0.51762843

model/batch_normalization_2/FusedBatchNormV3;model/dconv_1/depthwise;model/dconv_2/depthwise f4 [1, 3, 3, 96]
00000000: 7b3a 58be 76f9 27bf b02c 813e e5b9 403c
00000010: 73d7 0bbf 94b3 983f a4a6 963f 037d 09bf
00000020: 0c46 973f 940a 123e 7c5e 11be 38f2 e3bf
00000030: 3b5a 0dbe a30c 2940 3c17 a0bd f6d3 4e3e
00000040: 7f04 febe 6497 353f bd90 91be fba7 903f
00000050: c64b 5cbe 9ca3 9cbe 3c08 65bf 2820 a1bc
00000060: 1e17 55bf 7629 dcbd 5712 ed3e bc19 713f
00000070: a804 003f 31aa 78bf 47d9 52bf 1eb4 ffbe
00000080: cd4d 18bd 6514 46bf c0a1 a0bf 9b16 283e
00000090: 8372 8c3f bee0 dd3e 4404 1ebe d31e 083e
000000a0: 7015 a23e 7cb6 b0be 4395 d13d b1f4 bc3f
000000b0: 228d 98be 51f1 abbe 8750 703f 1e1e c1bf
000000c0: 969f 0c3f 0fd1 9c3e 235b dc3e 258e fb3e
000000d0: bfcd f9bf 39d9 ffbd 7c68 053f 41b9 80be
000000e0: dcbb 953e e753 453f c296 ccbe 24bf c9bf
000000f0: 325e e3bf e6f1 e43e 5af0 2c3f 90d8 32bf
00000100: 6cc1 0ebf 026a 6bbf e527 e8bf 3f60 4dbf
00000110: 1f94 75bf 80b8 b7bf 70a9 b43e 4ede 40bf
00000120: 4e91 263d 6dc9 10c0 3055 333f 9a85 8abe
00000130: 850b 0140 ef5b e93e cfdb 853f 2257 3dbe
00000140: c121 cd3f 7400 553e 7f95 7d3e 0c05 073e
00000150: 391b 92bf 572e 883e f3f1 82bf 841c 82bf
00000160: b1e6 cfbd c76e 1a3f eae8 91bd 98c1 24bf
00000170: ef71 d63d 288c 41bf 40ce 50be 40c5 b0bf
00000180: 5a78 6fbf 7bcc 5ebf f9b3 943d 9181 533e
00000190: f6a7 a23c a7b9 7f3f 12e2 a4bf 2b88 72be
000001a0: 58a6 b8bf 6186 1d3e 4640 19bf e591 013f
000001b0: 03d1 0cbf fca1 15be dd8c ffbe 78d1 c5bf
000001c0: acff 393e a71d af3d 93c1 55bf ec15 59bb
000001d0: 10ef 193f 93b2 1cbf 41c8 13bf ecbe 253f
000001e0: bd4c 6f3f 90c3 f0be 4724 883f 65ad fa3e
000001f0: f2c0 d2be be03 63be 8f59 01bf 2aee 87bd
00000200: 5967 0ebf 7c32 51bd cc2e 1b40 6361 7abe
00000210: 9ab2 433e f7c1 b33d 25a4 26be 206a 6bbe
00000220: b46d c63e 4a43 5abf f947 28bf 35bb ffbf
00000230: 3acf bd3e fd42 b33f b014 1e3e a3a5 7f3f
00000240: 5353 09bf 4ab5 8bbd 24bd 08bf 2c78 ac3f
00000250: d6e2 ffbe 33e2 803e e0d5 56be d788 a7be
00000260: fb07 6bbf db0e 00bf 3266 e5be 3390 d63f
00000270: c860 5f3f 7342 17bf fb18 2bbf 8856 9d3e
00000280: cda6 273e 6eb9 17bd b90e 0cc0 e910 f63e
00000290: 496e a43e 332a 543e 28ba 3bbf 2a44 03bf
000002a0: c800 cdbe a82f 103e 1664 3a3f 0f53 02bf
000002b0: 46d1 673f cc01 b13d f164 86be ac99 91bf
000002c0: 43ed 053f d612 86be e21d afbf 52f5 5c3f
000002d0: 259b e73e 31d3 06be c935 ab3e 3a0a 653e
000002e0: 232f a8be 75c1 303f d2e5 2ebf 9adb 263e
000002f0: 9088 29bf c603 0c3d 62fc 643e 34ce 2d3f
00000300: f8a9 d6be 3e2a db3d 4689 02bf a462 123f
00000310: a3cc 21bf 43de d23d 1b1c a5be 1e8b 19bf
00000320: ce6b cbbf 93e6 903f 6b1c 4dbe b78a dd3f
00000330: f1f6 273f 71ab fa3e 99b5 de3e 9db4 183f
00000340: 0012 903f a66a 99be 60ee 243f e454 afbe
00000350: 329e a53f 7894 11bf 116c 5dbe 54b8 913f
00000360: f771 02bf 93f8 a33f beb2 2b3f 31bd b93d
00000370: 22d6 623f 3f47 8c3f af2e 8f3d 4c11 c6be
00000380: 7081 c33f e66e 66bd 39c0 debf 8789 39bd
00000390: be1e a0bf e0a1 d7bd c9e6 223e fe95 963f
000003a0: 4e45 493f f817 ab3e 4086 2bbf 5438 0740
000003b0: e404 d5bd 1419 bebf 3180 ce3e eab0 43be
000003c0: f333 f53e 3340 143f fe7a aebe 9159 9dbf
000003d0: 17ee f9bd f56b a43f 122a 1c3d d086 583f
000003e0: 349f 583e 514e 5d3e e128 47c0 7c79 96bf
000003f0: aa07 95bf 4ad8 063f 2187 5f3d 3229 203e
-0.21116059 -0.6561502 0.25229406 0.011763071 -0.54625624 1.1929803 1.1769605 -0.5370638
1.1818252 0.14261848 -0.14196199 -1.7808294 -0.13803951 2.6413963 -0.078169316 0.20198044
-0.49612805 0.7093413 -0.2843074 1.1301264 -0.2151328 -0.30593574 -0.8946569 -0.019668654
-0.832384 -0.107500955 0.46303055 0.9417989 0.50007105 -0.9713469 -0.8236279 -0.49942106
-0.03718357 -0.7737487 -1.2549362 0.16414873 1.0972446 0.43335527 -0.15431315 0.13293009
0.3165698 -0.34514225 0.102335475 1.4762174 -0.29795176 -0.33582547 0.93872875 -1.5087316
0.5493101 0.3062825 0.43038282 0.49131885 -1.9515914 -0.12492604 0.52112556 -0.25141338
0.29244888 0.7708115 -0.3995877 -1.5761456 -1.7763121 0.44715804 0.6755425 -0.698617
-0.5576389 -0.9195863 -1.8137175 -0.80224985 -0.9592914 -1.435318 0.3528552 -0.7533921
0.040665917 -2.262294 0.7005186 -0.27055055 2.016328 0.45577952 1.0457705 -0.1849027
1.6025926 0.20800954 0.2476406 0.13185519 -1.1414558 0.26597854 -1.0230087 -1.0164952
-0.10151423 0.6032528 -0.07124503 -0.643579 0.1047095 -0.75604486 -0.20391178 -1.3810196
-0.93543017 -0.8703076 0.072608896 0.20654894 0.01985548 0.9989266 -1.2881491 -0.23684756
-1.4425764 0.15383293 -0.598637 0.5061324 -0.55006427 -0.14612573 -0.49912158 -1.545455
0.18163937 0.085505776 -0.83498496 -0.0033124639 0.60130405 -0.6120998 -0.5772744 0.6474445
0.9347647 -0.47024202 1.0636071 0.48960415 -0.4116283 -0.22169396 -0.5052728 -0.06637223
-0.55626446 -0.051073536 2.4247313 -0.24451213 0.191111 0.0877723 -0.16273554 -0.22989702
0.38755572 -0.85258925 -0.6573482 -1.9979006 0.37072164 1.4004818 0.15437579 0.99862117
-0.5364277 -0.068216875 -0.53413606 1.3474174 -0.4997775 0.25172576 -0.20980024 -0.32721588
-0.9180905 -0.5002267 -0.4480453 1.6762756 0.8725705 -0.5908577 -0.6683499 0.3073008
0.16372223 -0.037042074 -2.1883986 0.48059776 0.3211539 0.20719223 -0.73330927 -0.51275885
-0.4003966 0.1408068 0.7280897 -0.5090799 0.905537 0.08642921 -0.26248887 -1.1375022
0.5231516 -0.26186246 -1.3680995 0.8631183 0.45235553 -0.131665 0.33439472 0.22367182
-0.32848462 0.6904519 -0.6831943 0.16294709 -0.66224 0.034183286 0.22361901 0.67892766
-0.4192655 0.107014164 -0.5099071 0.57181764 -0.63202876 0.10296299 -0.32248005 -0.599779
-1.5892274 1.1320366 -0.20030372 1.7307957 0.6561118 0.48958924 0.43497923 0.59650594
1.1255493 -0.2996418 0.6442623 -0.34244454 1.2938902 -0.5686717 -0.21623255 1.1384377
-0.50955147 1.2810234 0.67069614 0.090692885 0.8860799 1.0959243 0.06991326 -0.3868507
1.5273876 -0.056258105 -1.7402412 -0.045297172 -1.2509382 -0.10528922 0.1590835 1.1764524
0.78621376 0.33416724 -0.67001724 2.112813 -0.104013234 -1.4851403 0.40332177 -0.19110456
0.47891197 0.5791046 -0.3407821 -1.2292958 -0.12203615 1.2845446 0.03812606 0.8458071
0.21154481 0.21611907 -3.11187 -1.1755824 -1.1642964 0.5267378 0.05457223 0.15640715
